chatbot_model.pth (torch, 94404 bytes, 6 tensors)

fc1.weight f4 [128, 105]
000000 e3 0c 67 3e 06 e1 8c 3d 05 7a 70 3d 76 a7 52 3e
       0.2256351 0.06878857 0.058710117 0.20571694
000010 6f df 38 3d 10 48 e2 bd ee ee e4 bd 05 2d 32 be
       0.045134958 -0.11048901 -0.11178385 -0.17399986
000020 20 66 1f 3e 20 43 2b 3b 57 34 40 3e 9b 55 72 3d
       0.15566301 0.002613254 0.18769966 0.05916367
000030 d8 c3 61 3c aa e8 f3 3c 77 be 81 3d e5 39 44 be
       0.013779603 0.029774029 0.063351564 -0.1916271
000040 ac c3 d5 3d 35 ae bc 3d ae c8 fc 3c eb 60 85 3e
       0.10437712 0.09212915 0.03085741 0.26050505
000050 93 56 37 3c 7e 62 a5 3d 47 27 fd bd 1e 9c c6 3c
       0.0111900745 0.080754265 -0.12361007 0.024244364
000060 7b ab 47 3e d7 ae 85 be d1 e8 a5 3c 5c ee 7f 3d
       0.19499008 -0.26109955 0.020252617 0.062483177
000070 f6 fe 49 bd 4a ff 81 bd be 71 ba bd 6a 6e 16 bd
       -0.049315415 -0.06347521 -0.09103726 -0.036726393
000080 ce ed 3f 3e 59 3c e1 3d 80 2b f0 bd f3 4c ec 3d
       0.18743059 0.109978385 -0.11727047 0.115381144
000090 f1 de 48 be 3a 9b 02 3e 80 dc 18 3e 72 f8 44 3e
       -0.19616295 0.12754527 0.14927864 0.192354
0000a0 33 c7 46 3e e4 42 af bd 53 1b 33 3e cf 93 56 3e
       0.19411926 -0.0855768 0.17490892 0.20954822
0000b0 29 61 43 3d c7 7a 5b bd 06 10 86 bc cc 3c 84 bd
       0.04770008 -0.053583886 -0.016365062 -0.064569086
0000c0 4b c5 42 be ac b0 1a 3e 50 e5 4f bd 6d a3 d2 3d
       -0.19020574 0.15106457 -0.0507558 0.10285077
0000d0 82 7c 02 be c4 b3 cc 3b 4e 31 11 be 2f 76 c8 3d
       -0.12742808 0.0062470157 -0.14178964 0.09788167
0000e0 d9 5d 40 bd 39 49 1a 3e d3 e0 6b 3b 5f 13 1c bd
       -0.0469645 0.15066995 0.003599216 -0.03810441
0000f0 db da 12 3c be 7a 74 3e 2e 05 0f 3e 58 3e 46 3e
       0.008963312 0.23874947 0.1396682 0.1935972
000100 a5 d7 4f be 74 64 31 be 3a 31 72 bd 64 6a bd bb
       -0.20297106 -0.17323476 -0.059128977 -0.005780505
000110 7f e2 c5 bd 3b 51 d8 bc 97 5c 12 3e 67 8c b9 b8
       -0.09662341 -0.026405921 0.14293133 -8.8476394e-05
000120 2d fb 99 be c9 9d 3d be 87 aa bb bd 69 32 43 3e
       -0.30074444 -0.18517222 -0.09163385 0.19062199
000130 1b 6b 70 3b ad b3 bc bd 48 ba c6 bc 72 a7 f9 3d
       0.0036684934 -0.09213958 -0.024258748 0.12190141
000140 7e d6 ad 3d 43 f4 f6 bc 19 fd 19 be 78 be ef bd
       0.08488177 -0.03014577 -0.15037955 -0.11706251
000150 2e 3b 05 bd d7 36 8d 3c cc d9 e6 bd 21 d6 8b bd
       -0.03252714 0.017238064 -0.1127201 -0.06827951
000160 56 e6 f6 3d c3 ac 79 be 6e c4 39 be 2c 04 f5 bd
       0.12055652 -0.2438231 -0.18141338 -0.11963686
000170 28 95 53 be a8 7d ae bd 02 59 5f be 11 c3 3f 3e
       -0.20662367 -0.08520061 -0.21811298 0.18726756
000180 86 f0 a8 bd d2 dc 9d 3d 61 f3 65 3e 54 f6 f8 bc
       -0.08249001 0.07708134 0.22456123 -0.030390896
000190 6c 51 6b 3d a7 7b a1 3d 3f ed da bd e1 c3 39 3d
       0.057450697 0.07884913 -0.10689782 0.04535282
0001a0 23 1f 90 3d ef a8 d1 bd 07 3b eb bc dd 78 c8 3d
       0.07037189 -0.102373 -0.02871467 0.09788678
0001b0 41 cf 53 bd 67 a1 12 3d 35 2b 91 bc e1 3d 2b 3d
       -0.051711325 0.035798457 -0.017720798 0.04180706
0001c0 b9 29 1c 3e 98 01 50 3e 52 04 a1 bc 52 d3 a9 bd
       0.15250291 0.20313108 -0.01965538 -0.08292259
0001d0 07 1a 15 3d d0 c2 ea bb 87 41 6f 3d 0b a2 67 bd
       0.036401775 -0.0071643367 0.0584121 -0.05655102
0001e0 a5 29 ad 3e 82 eb 62 3e e8 21 18 3e 6e 02 cb bd
       0.33820835 0.22160152 0.14856684 -0.09912573
0001f0 92 8b 73 3e 59 b5 c8 bd 45 64 1e bd 02 90 9e bd
       0.2378371 -0.09800214 -0.038669843 -0.07742311
000200 b8 15 b1 bd 0a 74 02 3e 98 cf 71 bd c7 c4 c2 bd
       -0.08646721 0.12739578 -0.059035867 -0.095101885
000210 d0 8d 30 bd 6d 35 c3 bd 6c d3 a1 bd 6f 0f 6b bd
       -0.043103993 -0.095316745 -0.07901654 -0.057387765
000220 89 32 c4 3c 02 ba cc bd 81 06 77 3d 34 41 93 bd
       0.023949878 -0.09996416 0.060308937 -0.07190171
000230 dd 48 ad bd 86 d9 60 3e 0e 95 ab bd 5d b7 77 3e
       -0.08461163 0.21957979 -0.08378039 0.24191041
000240 25 15 02 be db 6d 11 3e 1e 5e 9b bc b2 8f ec bd
       -0.12703378 0.14202063 -0.018965777 -0.11550845
000250 4e 34 05 be 0f b0 e2 bd db 54 56 be d1 f5 27 3d
       -0.13008234 -0.11068737 -0.20930807 0.041005913
000260 17 d5 b0 bd dc e4 43 3d 38 67 f5 bd 4e b4 2a bc
       -0.08634394 0.04782568 -0.11982578 -0.010418965
000270 e5 a2 e6 bd 31 a9 17 3e c8 4b 8d bd e7 fc 22 3e
       -0.112615384 0.14810635 -0.0689922 0.15916787
000280 bc d8 ea bd e5 e7 62 3e cb e8 49 bd 08 ab d1 bd
       -0.1146712 0.22158773 -0.049294274 -0.102377
000290 00 8f 1c bd 8b de 93 3d bb dd d2 bd 38 95 5b bd
       -0.038222313 0.07220181 -0.10296198 -0.053609103
0002a0 fa d3 94 bd 49 10 42 be ce cf a5 bd 0f 71 ba 3c
       -0.07266994 -0.18951525 -0.08096276 0.022758989
0002b0 6e b6 99 3d 9a 37 93 bc db 2e e2 3b 06 fc 7b bd
       0.07505499 -0.017970849 0.0069025583 -0.061519645
0002c0 f3 7b ed bd 96 43 d7 3e 0b 25 96 bd 43 e3 af bd
       -0.11595907 0.4204375 -0.07331284 -0.085882686
0002d0 53 57 1c bd 1c a3 f8 3c 53 13 7c 3e b0 c6 e6 bc
       -0.038169216 0.030351214 0.24616747 -0.028170913
0002e0 67 be 3e bb b1 00 e6 bc fa 40 00 be 72 d0 5b bd
       -0.0029105188 -0.028076502 -0.12524787 -0.053665586
0002f0 39 4d 26 be d8 cd 38 3d be 35 aa bd 5e 15 ad bd
       -0.16240396 0.045118183 -0.08311032 -0.08451341
000300 69 e7 77 3d 73 c4 a7 3c ef 5f ba bd 67 8a 7b bc
       0.060523424 0.020479416 -0.09100329 -0.015352822
000310 12 3d 03 3e c3 11 94 3d 71 51 7b bd 97 e4 f9 3b
       0.12816265 0.0722995 -0.061356965 0.007626127
000320 83 68 b1 bd 65 c3 70 bd c0 79 9f bd f5 ce 7e 3d
       -0.08662512 -0.058780093 -0.07786894 0.06220909
000330 2d 3c 53 3e dc 4e 10 3d 00 2e a3 3d 1b c9 0f 3e
       0.20628424 0.035231456 0.07967758 0.1404156
000340 33 ee 95 3e 37 f9 e4 3d f7 dc 1b 3e 46 54 53 3d
       0.29283294 0.111803465 0.1522101 0.05159404
000350 36 0e 2c bd dc 5e 32 3d 2c ee 07 3e 44 22 0b bd
       -0.04200574 0.043547496 0.13274449 -0.033968225
000360 92 2d cb 3d fb 05 5a 3c ac 45 71 3d ce 0b 28 3d
       0.09920801 0.01330709 0.058904335 0.041026883
000370 ed c8 a1 3e 97 0e 57 3e 94 f2 90 bc 58 e3 9c bc
       0.31598607 0.2100166 -0.017693795 -0.019151375
000380 11 65 ce 3d 91 4c 9d bd e3 a3 f9 bd 08 08 c0 bd
       0.10077871 -0.076806195 -0.12189462 -0.09376532
000390 0b 89 84 3d 52 7a 95 bd 21 e1 8e 3d 53 fc c6 3d
       0.06471451 -0.072987214 0.06976534 0.09716096
0003a0 8d 84 9d 3d b9 a7 75 3e 34 0f 1f 3e 8f 86 33 3d
       0.07691298 0.23989762 0.15533143 0.043829497
0003b0 b5 da c1 bd a3 ec d6 3c da 0a a5 bd 81 68 98 3d
       -0.09465543 0.026235884 -0.080587104 0.074418075
0003c0 1c b7 1c be 6d 93 68 bc a1 b7 0e 3e 68 71 0f 3e
       -0.15304226 -0.014195305 0.13937236 0.14008105
0003d0 06 01 f7 bc 04 54 c7 3d ce e0 8b bd 8e 6a 0a 3d
       -0.030151855 0.097328216 -0.068299875 0.033793025
0003e0 58 8e c3 3c 98 3e 95 3b 6a 3c 86 bd ec c0 b7 bd
       0.023871586 0.004554581 -0.06554492 -0.08972344
0003f0 06 b1 8c 3d 17 47 5b 3d a5 69 ac 3d c7 30 81 3c
       0.06869702 0.053534593 0.084185876 0.01577033

fc1.bias f4 [128]
000000 0e 4e 47 3e de b6 d8 3d da 28 6f 3d 2d 22 c6 3d
       0.19463369 0.10581754 0.05838857 0.09674487
000010 72 fe e5 3d dc 62 29 3e 48 fc 41 3e 7a 2c 34 3e
       0.11230172 0.16541618 0.18943894 0.17595091
000020 6f cd 47 3e f5 ce c0 3d 1e a0 47 3e 59 1b a3 3d
       0.1951196 0.09414474 0.19494674 0.079642005
000030 99 d6 52 3e 6e a0 db 3d 85 89 88 3e 8e ba f1 3d
       0.20589675 0.10723959 0.2666742 0.118031606
000040 3a 92 62 3d e7 bb 34 3e 7d 5d 57 3e bb 6c 61 3e
       0.055315234 0.17649804 0.21031757 0.22014134
000050 11 01 0a 3e 49 e6 5e 3e ff c9 14 3e 34 50 bf 3d
       0.1347697 0.21767534 0.1453018 0.093414694
000060 da 5a ac 3d d4 56 f0 3d e4 c9 40 3e a9 a3 aa 3d
       0.08415766 0.11735311 0.18827015 0.08331997
000070 9f 48 79 3e bd a2 12 3e 14 5d 98 3d 2e cc 1c 3e
       0.24344109 0.14319892 0.07439628 0.15312263
000080 c6 5f 97 3d 38 a4 40 3e 00 bb 61 3e bf 68 10 3e
       0.07391314 0.18812644 0.22043991 0.14102457
000090 4e 0b 45 3e 11 37 4d 3e fb 0b 35 3e 02 98 5f 3e
       0.19242594 0.20040537 0.17680351 0.2183533
0000a0 e2 fb 1b 3e 50 f5 88 3e 16 01 2e 3e d6 1a 7d 3e
       0.15232804 0.2674966 0.16992602 0.24717268
0000b0 05 18 c9 3d 42 b5 16 3e cc e6 43 3e 78 a7 3b 3e
       0.098190345 0.14717582 0.19131011 0.18325603
0000c0 ed df e7 3d 7f aa d8 3d 5b 40 11 3e 46 1f 17 3e
       0.11322007 0.105793945 0.14184706 0.14758024
0000d0 fc 9b b1 3d b9 b1 fc 3d ed 74 e9 3d 87 30 2d 3e
       0.0867233 0.123385854 0.11399255 0.16913043
0000e0 4a ab f9 3c 8f 9d ec 3d 25 3e f9 3d 54 85 1d 3e
       0.030477185 0.115534894 0.12170056 0.15382892
0000f0 d1 dd a8 3d ff 0e 06 3e e6 c2 26 3e 4b 70 0a 3e
       0.08245433 0.13091658 0.16285285 0.13519399
000100 97 05 b5 3d 63 b9 37 3e ea f6 2e 3e f7 33 1f 3e
       0.08838957 0.17941813 0.17086378 0.15547167
000110 8d 5b 81 3e 7d a9 4a 3e 11 8d 46 3e 1f f5 13 3e
       0.2526516 0.19791217 0.1938975 0.14448975
000120 4d 66 4a 3e 9c c4 05 3e 0c f9 15 3e ba a7 0d 3e
       0.19765587 0.13063282 0.14645785 0.13833514
000130 28 9c eb 3d 73 ee 07 3e ad c5 25 3e 9d cd 86 3e
       0.11504394 0.13274555 0.16188689 0.26328745
000140 52 de 34 3e 20 16 e2 3d e7 8f 65 3e 03 34 62 3e
       0.17662933 0.11039376 0.22418176 0.22090153
000150 5c 38 46 3e 95 98 ef 3d aa 34 6a 3e e5 70 d4 3d
       0.19357437 0.116990246 0.22871652 0.103730954
000160 21 80 c3 3d 0c 45 04 3e 2a 15 62 3e df d5 2c 3e
       0.09545923 0.12916964 0.22078386 0.1687846
000170 a1 6e 12 3e f7 93 14 3e 5e c4 ab 3d 01 a4 9f 3d
       0.14300014 0.14509569 0.083870634 0.07794953
000180 75 cf 1d 3e 85 09 1b 3e 8c 4a 0d 3e 8e f3 3e 3e
       0.1541117 0.1514035 0.13797969 0.18647596
000190 c7 24 6a 3e af 22 7c 3d 69 85 6d 3d 50 35 13 3e
       0.22865592 0.061556514 0.057988558 0.14375806
0001a0 3b b9 37 3e fa 28 b7 3d cc 06 bf 3d 7f c5 0b 3e
       0.17941754 0.089433625 0.09327468 0.13649558
0001b0 9d 51 dd 3d 51 21 4f 3e 59 7b 31 3e fb fb 16 3e
       0.10806582 0.20227553 0.1733221 0.1474456
0001c0 3d de 18 3e 18 77 0f 3e ec be 00 3e ee a5 fd 3d
       0.14928527 0.14010274 0.12572831 0.12385164
0001d0 33 51 c7 3d 51 ab 34 3e 39 70 12 3e a6 69 6d 3d
       0.097322844 0.17643477 0.14300622 0.057962082
0001e0 2f 82 38 3e 95 88 b0 3d e7 1a 1a 3e 78 9c 06 3e
       0.18018411 0.08619801 0.15049325 0.13145626
0001f0 cf 84 2a 3e bb 31 7b 3e 7d 7e 55 3e e8 31 3b 3e
       0.16652225 0.2453069 0.20849033 0.18280756

fc2.weight f4 [64, 128]
000000 2d 54 c7 bd b7 7d 6f 3e 25 48 86 3d 15 fd a4 bd
       -0.09732852 0.233878 0.06556729 -0.08056084
000010 1c 3f d5 bd 1f 57 ae bd 23 8b 25 be b4 51 1d 3e
       -0.10412428 -0.08512711 -0.16166358 0.15363199
000020 19 86 bb bd 07 1b 15 be a7 cf f8 3a 00 d8 85 3d
       -0.091564365 -0.14561091 0.0018982784 0.06535339
000030 90 d0 a2 bd 7a 9a 63 3e 40 e8 ea bd d4 42 89 3e
       -0.079499364 0.22226897 -0.114700794 0.26808798
000040 a7 7b 2f 3d bf e7 e9 3d cb 29 57 bd 0a 56 d8 bd
       0.042842533 0.11421155 -0.05253009 -0.10563286
000050 af b2 54 be 3a 25 9f bd c6 1f 87 bd c9 0e 85 3e
       -0.20771287 -0.07770772 -0.06597857 0.25987843
000060 5b 2a 08 3e 03 be 32 3d 88 a7 93 3c 04 01 8f 3e
       0.13297407 0.04363824 0.018024221 0.27930462
000070 22 90 9d bc 2d f6 c3 3d 9a 48 3e bd 6f 3c d9 bd
       -0.019233767 0.09568439 -0.046455957 -0.1060723
000080 31 7d 87 3b 8b 5f 90 bd b2 19 b2 3d fd 96 a8 3c
       0.004134797 -0.070494734 0.08696307 0.02057981
000090 84 26 00 3e 5a d6 0e be 7e f7 21 3c c4 8e 2a 3e
       0.12514693 -0.13948956 0.009885667 0.16656023
0000a0 7d ef 54 3d 34 81 b8 3d 02 ac 01 be 39 bf fe 3c
       0.051986206 0.090090185 -0.12663272 0.031097041
0000b0 d7 71 5a be a8 f0 93 bd 7c 3d 03 3d f9 f2 4e be
       -0.21332489 -0.07223636 0.032041058 -0.20209874
0000c0 25 8a ff 3d 8d e0 3a 3d 0f 65 bb 3d ad e0 a1 bd
       0.12477521 0.045624305 0.09150135 -0.07904182
0000d0 ce d2 73 3d 46 27 94 3d c9 c9 66 3d 0e 91 a2 3d
       0.05952721 0.07234053 0.05634478 0.07937823
0000e0 e3 a1 bf 3e 09 4d 21 3d 06 de 3d 3d c8 f9 58 3d
       0.37428197 0.039380107 0.046354316 0.052972585
0000f0 20 58 95 3e ed 9c 31 3e 6f 3e 5f 3d 5c 8d 9e 3d
       0.29168797 0.17345019 0.0545029 0.07741806
000100 e7 39 04 be ab 2a 3c bd e8 7a 00 bc 89 05 c4 3e
       -0.12912713 -0.04593913 -0.007841803 0.38285473
000110 83 79 e1 3c 64 aa eb 3c fb db dc bd f0 81 49 3e
       0.027523762 0.028767772 -0.107841454 0.19678473
000120 bf 55 6b bd 37 28 02 be 4e 61 34 3e 88 3f e3 bd
       -0.05745482 -0.12710653 0.17615244 -0.11096102
000130 d0 3a 76 be ba 4b 1f 3e 64 d6 3f bc 27 ac 3b 3d
       -0.24045873 0.15556231 -0.01170883 0.045818474
000140 a0 63 f1 bc 8f aa 56 be eb cd 5a 3e 7f ee d6 3d
       -0.02946645 -0.209635 0.21367614 0.10494708
000150 a1 bc 66 bd 9b 24 88 bd d1 29 d5 3d 89 66 85 3e
       -0.056332234 -0.06647607 0.104083665 0.2605479
000160 f3 8e 1a 3e 9d 3b 58 3d 29 22 4b 3d 37 03 71 3d
       0.15093593 0.052791227 0.049593125 0.058840957
000170 c8 6e 07 3e 74 fe 0a 3e 36 80 89 3e 54 08 e6 3d
       0.13225853 0.13573629 0.2685563 0.11232057
000180 ab c0 4b 3e 50 7b 20 3d 24 d5 1c be ba ea 32 be
       0.19897716 0.0391801 -0.15315682 -0.17472354
000190 6d f6 b4 3e 3b d9 86 bd 80 2e c2 3e 45 48 16 3e
       0.35344258 -0.06584402 0.37926102 0.14676006
0001a0 d3 d2 ed 3d d7 7d cb bd 7a 35 62 3e 94 3f 2f 3d
       0.11612477 -0.099361114 0.22090712 0.042785242
0001b0 d8 3f bf 3d 0d 76 1f be 32 d3 61 bd ba 90 81 bd
       0.09338349 -0.15572377 -0.055133052 -0.063264325
0001c0 f2 bc ed bd 75 49 98 3d be 93 fa bd 20 c2 df 3d
       -0.11608304 0.07435886 -0.12235211 0.10925698
0001d0 06 a9 bb 3d f1 28 9c 3e dd f2 72 3d 76 a9 11 be
       0.09163098 0.30499986 0.059313644 -0.142248
0001e0 80 b6 a9 3c c6 04 0c 3e 95 c9 b9 bc 05 4e 52 3d
       0.020716906 0.13673696 -0.02267913 0.051343936
0001f0 b8 8e e0 3e ea 93 0b 3e 9a 5a e5 3d 79 66 21 be
       0.43858886 0.13630643 0.111989215 -0.15761746
000200 3a 52 05 3d 25 25 61 bd f6 d5 a7 3e 28 e3 b7 3c
       0.03254912 -0.054967064 0.32780427 0.022447184
000210 75 b6 a4 3d 6c 6d 3c be 48 d3 5a bd f5 30 01 3d
       0.080426134 -0.18401116 -0.05342415 0.03154083
000220 56 68 73 3e 8c a4 1e 3e f8 e8 d1 3c a1 e8 f4 ba
       0.2377027 0.15492457 0.025623783 -0.0018685051
000230 16 07 9a bd 32 4b 39 3e 05 8e 2b bd c3 5a 6a 3e
       -0.07520883 0.18095091 -0.041883487 0.22886185
000240 ae 4b 17 bd af cd 96 bc b8 2a a9 bd 96 9e d9 bd
       -0.03693741 -0.018408624 -0.08260101 -0.10625951
000250 52 96 37 be 8d 55 04 3d f7 e8 aa 3e 86 76 00 bd
       -0.17928436 0.03230815 0.33380863 -0.031363033
000260 6a 43 07 3e 8d bb 46 3c e2 5c 3a 3e eb de 04 3e
       0.1320931 0.0121296765 0.18199494 0.12975661
000270 a1 fd 57 3c ac 25 44 3d 34 3b 24 3e 19 2d f6 bd
       0.013183028 0.04788749 0.16038209 -0.120203204
000280 74 c9 06 3d e6 20 94 3d 7a bd 14 3e 7f 98 b5 3d
       0.032906964 0.072328374 0.14525405 0.08866977
000290 5d 86 3d bd 8f b3 cf bc 87 8b 1e be 19 a0 01 bd
       -0.046270717 -0.025354175 -0.15482913 -0.03164682
0002a0 ac 7b 66 bd 23 b4 1e 3d 6e 16 db bd 01 e9 c2 bd
       -0.056270286 0.03874601 -0.106976375 -0.09517098
0002b0 2b cf a8 bd 8d 06 21 3e c2 6f ae 3c 15 36 e8 3d
       -0.08242639 0.15725155 0.021293525 0.1133844
0002c0 98 1f 43 3e ae 5b a2 3e 26 bb 78 bd bb 29 f1 bd
       0.19055021 0.3171057 -0.060725354 -0.117755376
0002d0 7d b5 15 3e c1 d5 35 3e 45 e3 22 3e 44 a5 bb 3c
       0.14620014 0.17757322 0.15907009 0.022905953
0002e0 2d 37 e1 3d 87 10 96 3d dd 89 c2 bd f6 c5 6c bd
       0.10996852 0.07327371 -0.094989516 -0.057805978
0002f0 c2 70 65 3e a6 55 1d be d9 ff 2c 3e e0 8b be 3e
       0.22406295 -0.15364704 0.16894473 0.3721609
000300 d6 ff 02 be 43 14 b6 3d c1 c5 a7 bd fa 4d 43 3c
       -0.12792906 0.08890583 -0.081920154 0.0119204465
000310 39 dc dc 3d c8 dd 84 3e 71 5d eb bd 63 26 db 3d
       0.10784192 0.25950456 -0.11492432 0.10700681
000320 f8 5e 6d 3d e8 97 fc 3d fe 39 46 3d 2c 2e 1e 3e
       0.057951897 0.12333661 0.04839515 0.154473
000330 29 63 5e b9 8b dd 04 be 89 e3 b3 3e 09 2a 4d 3d
       -0.0002120851 -0.12975137 0.35134533 0.050088916
000340 5a f7 77 3e eb ff d5 3c a2 9b d8 bc d3 da 0e be
       0.24215451 0.026123008 -0.026441399 -0.13950662
000350 6b 0c e3 bd c5 41 4f 3d bb cc 04 be ee f4 0e bd
       -0.11086353 0.050599832 -0.12968723 -0.034901552
000360 93 0b 48 3e ef 5a b3 3d ba 8d 2b 3e 84 9a 80 3e
       0.19535665 0.087575786 0.16753283 0.25117886
000370 31 fc 5f bd ac 5d a8 3e f6 b6 b0 3d 9e 42 5a bb
       -0.054683868 0.32883966 0.08628647 -0.0033303867
000380 64 4e 1c 3e 81 4e 40 3d e7 ba 78 3d 90 47 dd bd
       0.15264279 0.046949867 0.06072512 -0.10804665
000390 b8 91 d4 bc 2a bc 68 be 5d 90 b0 3b 5c 8c 8c be
       -0.02594839 -0.22728029 0.005388303 -0.27450836
0003a0 61 64 a4 3d 9d 3a da bd 2c e7 b9 bd 1d 2e 11 3e
       0.08026958 -0.10655711 -0.09077296 0.14177747
0003b0 47 78 06 3e d1 61 18 bd 21 c9 94 3e 0c 0b 38 be
       0.1313182 -0.03720266 0.290597 -0.17972964
0003c0 b5 6c d5 3d e9 d8 cd bd fa 07 5a 3c dc 9a 4b 3d
       0.10421125 -0.10051138 0.013307566 0.049708232
0003d0 c1 f2 5f 3c 5e 9f b5 3d 9c ce a2 bd 05 a1 bc bd
       0.013668717 0.088682875 -0.07949564 -0.092103995
0003e0 26 94 6a 3e fa 6d af bd 98 f8 7d bd 73 64 d1 3d
       0.22908077 -0.08565898 -0.062004656 0.10224237
0003f0 77 37 96 3e 6d 4d 6b 3e cf 85 96 3d f7 bf 1f 3e
       0.2933919 0.22978754 0.07349741 0.15600573

fc2.bias f4 [64]
000000 8c 6b 18 bc c8 95 30 3d 83 bd 99 3c 36 54 d3 3d
       -0.009302985 0.043111593 0.018767124 0.10318796
000010 fa dd 17 bd dc 7c 0f 3d 92 92 74 3d 6d b7 75 bc
       -0.037076928 0.035031185 0.059710093 -0.014997345
000020 94 98 b4 3d f9 6b cf 3d 44 a4 e9 3c 20 16 e2 3c
       0.088181645 0.10128016 0.02852071 0.02759844
000030 e5 4a 51 3d 4e ec ce 3d 82 e5 8c 3c 44 47 91 3d
       0.051096816 0.10103665 0.017199282 0.07093671
000040 85 6c 26 bb 5e c5 04 3d 08 36 08 3e 87 09 01 3e
       -0.0025394273 0.032414787 0.13301861 0.1260129
000050 1f 58 07 3d dd f8 12 3e da cc a5 3c 36 d7 4e 3d
       0.033043023 0.14352746 0.020239282 0.05049821
000060 9c d8 a3 3d 40 27 18 3d fc c4 eb bc b5 c9 4f 3d
       0.08000299 0.037146807 -0.028780453 0.050729472
000070 d5 6b 2b bd e4 27 a3 3d 37 13 e5 3d 2c c0 2e 3d
       -0.041850884 0.07966593 0.111853056 0.042663738
000080 98 34 bc 3d 93 f5 06 3d 0e 5a 2d 3d 54 02 dd bb
       0.09189719 0.03294904 0.04232221 -0.0067446623
000090 5f f6 bc 3d 5c 40 b2 3d 81 a6 c0 3d 39 c1 0e 3e
       0.09226679 0.08703682 0.09406758 0.13940896
0000a0 a4 d0 d0 3d 12 85 44 bd 02 fc 07 bc 9f 47 41 bd
       0.10196045 -0.04797847 -0.008299829 -0.047187444
0000b0 40 53 72 3d 05 96 6c bc 97 56 bb 3b 22 7a 88 3d
       0.059161425 -0.014440064 0.0057171094 0.0666392
0000c0 a8 ca 24 bc 03 6c a7 bd 21 b4 78 3d d8 8e 6c 3c
       -0.010058083 -0.081748985 0.06071866 0.0144383535
0000d0 f0 35 80 3d 0d cb db bb 24 67 07 3e a8 ba c9 3d
       0.06260288 -0.006707555 0.13222939 0.09850055
0000e0 a1 8c 49 3d bb ec 64 3d 52 9e de 3d 2d 38 c0 3d
       0.04920638 0.055889826 0.10870041 0.09385715
0000f0 6b d9 f8 3d 45 c4 9f 3d 4e b7 f4 3d 92 8b 00 3e
       0.12150844 0.07801107 0.11949025 0.12553242

fc3.weight f4 [17, 64]
000000 25 3f 24 bf 48 fe 27 3d 3f 5f 50 bd fb 9b 89 bd
       -0.6415885 0.041013986 -0.050872084 -0.06719204
000010 08 06 a0 bc 0e fa b5 be 3a cc 17 be 4a f1 4b 3e
       -0.019534126 -0.3554234 -0.14824 0.19916263
000020 2d 26 b3 be ec 88 74 3e c3 c8 1e bf 26 ae 84 be
       -0.34990063 0.23880357 -0.6202509 -0.25914115
000030 6a 5a 1f 3e 13 4d 63 3e 06 a0 f2 be c6 cc da be
       0.15561834 0.2219737 -0.47387713 -0.42734355
000040 39 b8 15 bd 68 b8 b3 bd b5 2c 69 3e b9 e0 d6 be
       -0.03655264 -0.08775407 0.2277096 -0.41968325
000050 fb 2c 04 3e 27 05 92 be ac e4 83 3d 07 b4 2a 3e
       0.12907784 -0.28519556 0.064401 0.16670237
000060 ff 16 ed 3d 04 06 79 be f6 8d a5 39 f2 ca 84 be
       0.11576652 -0.24318701 0.00031577022 -0.25936085
000070 27 3b fa 3c 61 21 28 3e c0 0c 2a 3e 63 5e 5e bd
       0.030545784 0.16418983 0.16606426 -0.054289233
000080 04 89 b0 3d 47 04 e1 bd b0 0e ce 3c 9f a5 04 3e
       0.08619884 -0.10987144 0.025153488 0.12953804
000090 74 58 27 bd a4 88 67 3e 1f bf be 3d 45 80 9c 3b
       -0.04085584 0.22610718 0.09313797 0.004776033
0000a0 f1 0d b3 3c 96 ea be 3d e9 04 c4 3d e3 45 0f bf
       0.021857234 0.093220875 0.09571249 -0.55966014
0000b0 ff f9 20 be 07 3d ca be ad fa f3 bc 30 09 9f 3d
       -0.15720366 -0.39499685 -0.029782617 0.07765424
0000c0 26 9c 30 bd 5d 5e 85 3b 38 98 68 be f9 c3 13 3e
       -0.043117665 0.004070087 -0.22714317 0.14430226
0000d0 1c b2 1c 3e 77 df e1 be 08 52 e6 3d 0f 29 70 bd
       0.15302318 -0.44115803 0.11246115 -0.058632907
0000e0 58 eb cc bd cb 06 a0 bd 9c fd 77 be 38 7d b7 3d
       -0.10005826 -0.07813796 -0.24217838 0.089594305
0000f0 e8 63 5c 3d cc 93 a9 be 5f 8d 86 3d f2 7a 24 3e
       0.053806216 -0.33120573 0.06569933 0.16062525
000100 64 ff ab 3d 98 65 ce bd f7 21 2e 3e 7f e6 79 3e
       0.08398321 -0.10077971 0.17005144 0.24404334
000110 f8 cb 8a be 88 9c 8e bd 41 f4 be be 84 3e 0d be
       -0.2710874 -0.0696345 -0.37295726 -0.13793379
000120 9b 5c d1 3d 8f 1d 02 3e 41 38 b1 be 09 9c 6c bc
       0.10222741 0.12706588 -0.3461323 -0.014441499
000130 fe bc 3c 3e 2b 34 01 3e c5 16 e5 be eb 44 fd be
       0.1843147 0.12617557 -0.44743934 -0.49466643
000140 ad f7 00 bf 43 10 80 3d 2f 71 be be d6 a8 88 be
       -0.50377923 0.06253102 -0.37195727 -0.26691312
000150 f3 d0 d0 be bf 8f 90 be 18 38 bc be 46 65 5e 3e
       -0.40784416 -0.2823467 -0.36761546 0.2171832
000160 9c 28 c0 be 91 e2 96 be 85 aa 83 3d 35 86 2c bf
       -0.37530982 -0.2946973 0.064290084 -0.67392284
000170 ba 15 4f 3e 2e b2 d0 3d 47 1d b9 bd 94 ce 35 bd
       0.20223132 0.10190235 -0.09038787 -0.04438646
000180 d3 1b 1a bf 75 1d 23 3d eb bd df 3d 66 89 e9 bd
       -0.60198706 0.039823014 0.10924896 -0.1140316
000190 ea 1c 47 be 1f ee a9 3d ea 47 22 3e dc 21 77 3e
       -0.19444624 0.08297371 0.15847746 0.2413401
0001a0 ba b1 0a bf 95 a5 a9 be c4 67 4a be ae 15 57 be
       -0.5417744 -0.33134142 -0.19766146 -0.21004364
0001b0 ea f8 39 3e 1d 2c 94 be e0 4c dc be 30 2f e5 bd
       0.1816136 -0.28939906 -0.430274 -0.11190641
0001c0 bc b1 37 bd 5e cb 88 bd a7 7a a1 be c0 3a 93 be
       -0.044847235 -0.06679414 -0.3153889 -0.2875576
0001d0 60 ef 60 be 7f 00 85 be 1d d8 4f 3e b8 ec 31 3e
       -0.21966314 -0.2597694 0.20297284 0.17375457
0001e0 04 a0 18 3e 3d 87 0a 3e 01 17 62 3c 34 c2 69 3e
       0.14904791 0.13528152 0.01379943 0.22827989
0001f0 5b 30 3d 3e c3 86 13 be 09 24 2f 3e e0 c2 49 be
       0.18475477 -0.14406876 0.1710359 -0.19703245
000200 3a 54 05 3e 55 cc b4 bd a1 80 4a be 45 76 78 3e
       0.13020411 -0.08828036 -0.1977563 0.24263866
000210 4f 8e 13 bd 91 9b 1f 3e d7 8f bd bc 3c b9 07 be
       -0.036024388 0.15586688 -0.023139877 -0.13254255
000220 c3 e5 29 bd 7a fb 9c 3d 11 e9 18 bf 6e be ca bd
       -0.041478883 0.07665153 -0.5973063 -0.09899603
000230 c3 81 af bd 09 e3 d1 bd d9 1f f4 3c 8e 01 82 bd
       -0.08569672 -0.10248382 0.029800342 -0.06347953
000240 48 e7 0a 3e 9b af 2f 3e 33 4c af be 06 0e 8e 3c
       0.1356479 0.17156832 -0.34237823 0.017340671
000250 07 58 8c be 6e 98 81 bd ce 9f de be 32 fe 0a be
       -0.2741091 -0.06327902 -0.43481296 -0.1357353
000260 65 d5 c9 be 0f 6e 0e bf 8c 8d e4 3d 5b cb 12 be
       -0.3942062 -0.55636686 0.111598104 -0.14335386
000270 66 15 b9 3d 20 da ec bd 2b 1c 80 be 7a c4 f3 be
       0.090372846 -0.115650415 -0.2502149 -0.47610837
000280 86 b8 81 be 46 ae 9b be 0d 95 2c 3e 59 aa 74 bd
       -0.25336093 -0.30406398 0.16853733 -0.05973277
000290 a6 ec f5 3d af f3 d7 3d 8f a4 f0 3d 75 3c 50 3e
       0.12008028 0.10544526 0.11750137 0.20335563
0002a0 1a 8f 27 3e c8 03 fb be 70 df a4 be 1f c7 42 3e
       0.16363183 -0.49026322 -0.3220172 0.19021271
0002b0 f5 fc 2e 3e 06 d1 a8 bc c2 d9 f9 3d c9 ff 73 3d
       0.17088683 -0.020607483 0.12199737 0.059570108
0002c0 21 39 b4 be fe 45 8a 3d 07 f0 2c 3e 9b 0a bb bb
       -0.35199836 0.06751631 0.16888438 -0.0057080514
0002d0 8d 79 83 be 98 b8 b5 3e 56 cb 26 bd 39 81 38 3e
       -0.25678673 0.35492396 -0.04072126 0.18018045
0002e0 00 6e 2c be 4b 38 96 be a1 a9 e3 3d e2 55 15 3e
       -0.16838837 -0.29339823 0.111163385 0.14583543
0002f0 3d cf c1 be dd 30 3a be 16 ef 8f bd 43 e2 af bd
       -0.37853423 -0.18182702 -0.07028024 -0.08588078
000300 1c af b5 3d 1c f0 c3 be d3 f5 92 bc 80 3f 31 3d
       0.0887129 -0.38269126 -0.017939484 0.04327345
000310 dc 47 ce be 31 20 61 3e bd 51 31 3e c3 96 b0 be
       -0.402892 0.21984936 0.17316337 -0.34490022
000320 91 e5 ec be 36 1e 89 3d da 5f 5e be 28 ad 2a be
       -0.46268895 0.066952154 -0.21716252 -0.16667616
000330 27 0f 1e be 00 4a 22 3e ca 4a 7e 3d e4 de b1 be
       -0.15435468 0.15848541 0.062083043 -0.34740365
000340 a2 c2 22 3e 50 4f 8b be b1 76 5f 3e 54 96 88 be
       0.15894559 -0.27208948 0.21822621 -0.2667719
000350 c9 2c 96 be 44 13 18 3e f3 c0 de be 4e fe 32 3e
       -0.29331043 0.14851099 -0.43506584 0.17479822
000360 ee 06 ac be 41 d5 e8 be da 51 a0 be 40 2d 95 bd
       -0.33599037 -0.454752 -0.31312448 -0.072840214
000370 51 4f 23 3d c8 ed 12 3e 6f 3f 52 3e 8c e3 fa bd
       0.039870564 0.14348519 0.2053201 -0.12250432
000380 13 b5 1c 3e 69 21 a3 be 95 38 a9 ba b1 db 2f bf
       0.1530345 -0.31861427 -0.001291054 -0.686946
000390 27 12 8a be 2b 56 f0 be 64 41 dd bc 22 9b f8 3d
       -0.26966974 -0.4694074 -0.02700872 0.12138964
0003a0 ab d5 60 be aa 93 e6 be a0 72 2b bd 3a c3 95 3c
       -0.21956508 -0.45034534 -0.04185736 0.018281568
0003b0 27 ad 1b 3e 22 72 0e bf 75 0d 2f 3e 95 dc f1 3d
       0.15202771 -0.556429 0.17094977 0.11809651
0003c0 97 c7 f5 be b6 0e 73 bc 04 1e a4 3d ef 5f 0c be
       -0.48003837 -0.01483505 0.080135375 -0.13708471
0003d0 0b 10 b4 bd 2f a6 84 be be 83 0a be d7 1a 83 3d
       -0.087921225 -0.25908038 -0.13526818 0.06401604
0003e0 3f 58 ab be ea 6a 8d be 17 d4 10 3e 7f 9d 6f 3e
       -0.33465764 -0.2762063 0.14143406 0.23399924
0003f0 8f ed 52 3e 5b a2 31 3e 88 1d 2e 3e d2 d8 0f 3e
       0.20598434 0.1734709 0.17003453 0.14047554

fc3.bias f4 [17]
000000 f4 b5 bd bd 19 27 f1 3d f3 39 22 bd 28 f3 cf 3c
       -0.092632204 0.117750354 -0.039606046 0.0253845
000010 c9 c3 84 bd 91 10 26 3d e8 f3 de bd 61 c0 d1 3d
       -0.064826556 0.040543143 -0.10886365 0.102417715
000020 6f e3 11 3e 82 a9 bf 3d e1 94 65 bd 4e be 6d bc
       0.14246915 0.09358503 -0.056050185 -0.014510704
000030 87 dc b4 3d e0 2b a1 3d 18 03 7c 3d 34 33 50 3c
       0.08831125 0.078696966 0.061526388 0.01270752
000040 74 61 19 bd
       -0.037446454
